model/keypoint_classifier/keypoint_classifier.tflite (tflite, 6588 bytes, 6 tensors)

sequential/dense/BiasAdd/ReadVariableOp f4 [20]
000000 62 ef 53 bf 04 41 30 bf c8 52 58 be 8b 55 0b bf
       -0.82787144 -0.68849206 -0.21125329 -0.54427403
000010 c6 bb f4 be 1b 76 d1 bc a8 9c e4 be 9d 9d 3f bf
       -0.4779951 -0.025569012 -0.4465077 -0.74849874
000020 9a 1c 65 bf 06 20 33 bf bf cb cf be 4c 7b d6 be
       -0.8949677 -0.6997074 -0.40585133 -0.41890943
000030 56 ce 96 be 10 67 bb be 56 3d 2b bf 3d 60 a1 be
       -0.29454297 -0.36602068 -0.66890466 -0.31518736
000040 ef 20 d1 be 8b 61 21 bf 12 66 50 3e f6 ec 23 bf
       -0.4084544 -0.63039464 0.20351437 -0.6403345

sequential/dense_2/BiasAdd/ReadVariableOp f4 [5]
000000 f6 2e 88 bd 3e f4 c5 be c4 2f 2d 3f 5b fa d3 3e
       -0.06649582 -0.38662905 0.6765101 0.41401944
000010 22 4f 9f be
       -0.3111506

sequential/dense_1/BiasAdd/ReadVariableOp f4 [10]
000000 c9 1d 0f 3f 63 58 aa 3c ca bc c2 3e 14 0b f5 3e
       0.55904824 0.0207941 0.3803466 0.47860014
000010 56 64 b8 3e e5 c0 09 3e 20 1d de 3e 01 3a fa 3d
       0.3601405 0.1345249 0.43381596 0.122180946
000020 9b eb a0 3e b4 f2 6a 3e
       0.31429753 0.22944146

sequential/dense/MatMul f4 [20, 42]
000000 b8 e5 7c 3d fb 4b 2c be d5 25 b9 3e cc 7f 57 bf
       0.061742514 -0.16825859 0.36161676 -0.8417938
000010 c2 97 b7 3e 82 b9 b4 be fe f1 7a 3e 95 37 e1 be
       0.3585797 -0.3529778 0.24506375 -0.43987718
000020 67 21 10 3f 0d 97 24 bf 85 54 6c bd 5a c4 f1 bd
       0.5630097 -0.64292985 -0.05769779 -0.11805029
000030 58 51 24 bc 31 a9 83 bd 66 7d a9 bd cb 20 06 3e
       -0.0100291595 -0.06428755 -0.08275871 0.13098447
000040 be 0b c7 bd 03 c2 07 3e 2f ec e1 bd a7 e6 f7 bd
       -0.097190365 0.13257603 -0.110313766 -0.1210454
000050 7b 71 2f 3d 70 5a 22 bd 12 a2 a0 bd e6 a7 9b 3d
       0.042832833 -0.03963703 -0.078434125 0.076003835
000060 68 be 7e bd 4f 9d a9 3d e9 43 9a 3d 90 81 5e bd
       -0.062193304 0.08281957 0.07532484 -0.05432278
000070 29 32 da 3d a0 a6 ad bd e2 2c d1 3d fc de 0b be
       0.106540985 -0.08479047 0.10213639 -0.1365928
000080 20 a1 9a 3e c0 3f 31 be 39 0c 03 3d 70 dd 2c bd
       0.30201054 -0.17309475 0.03199408 -0.042203367
000090 3b 7e 04 3e 2e d8 20 bd 8e 85 c7 ba ba 63 0f bc
       0.12938778 -0.039268665 -0.0015222298 -0.008751804
0000a0 30 87 5c be 7d 68 3b bd 35 8e 28 be 1e 72 84 3e
       -0.21535945 -0.045753945 -0.16460498 0.25868315
0000b0 61 13 39 be dc 99 5f be 23 8d 09 3d 56 80 05 be
       -0.18073799 -0.21836036 0.033581864 -0.13037238
0000c0 93 e4 31 3b 01 dc ad be ae 87 08 bd ef 52 4c be
       0.0027144297 -0.33956912 -0.03333252 -0.19953512
0000d0 1d 96 87 3e 6c 5c 1e be 63 b6 fd 3c f8 18 80 3d
       0.26481715 -0.15464944 0.030970758 0.062547624
0000e0 7b 6d 1f be 52 1f 31 3e 6c 3c f2 bd a7 27 af 3d
       -0.15569107 0.17297104 -0.11827931 0.08552485
0000f0 0b 54 c9 3e b8 82 c2 bd ae 2b 83 3d a9 2f 75 bc
       0.39321932 -0.09497589 0.064048156 -0.014964976
000100 21 f5 02 be 3f 79 7d 3d ff d9 de bd d9 b4 53 3d
       -0.12788822 0.061883207 -0.10881423 0.05168614
000110 6a 41 a1 3e 01 ce 9a bd ad 4e a0 3d 7d 1f ab bd
       0.3149522 -0.075588234 0.07827506 -0.08355615
000120 ba 80 0f bd 1c 1a 3a 3d 6d 69 b7 bd bc 85 4d 3d
       -0.035034873 0.045435056 -0.08955655 0.050176367
000130 35 75 13 3c 17 bc e0 bd 73 d4 d4 3d e5 e5 50 bf
       0.009000112 -0.10973375 0.10392084 -0.8160079
000140 f9 44 8c bc f2 18 29 bd f3 f4 f6 bc 63 82 21 3d
       -0.017122732 -0.041283555 -0.030146098 0.039430987
000150 96 0f 08 3e 88 e1 f4 3d e7 6a be 3d 3a 0a 3e 3f
       0.13287196 0.11957079 0.09297734 0.74234354
000160 60 86 13 3d a8 4b ac 3e 01 e6 8a 3e d4 d5 c7 3e
       0.03601682 0.3365147 0.27128604 0.39030325
000170 94 b1 84 3e af 78 cc 3e 96 7f 77 be da 18 3f be
       0.2591673 0.39935824 -0.24169764 -0.18661824
000180 84 39 02 3e 6a 21 95 bd 86 01 9b 3d 12 00 eb be
       0.12717253 -0.07281764 0.0756865 -0.4589849
000190 92 09 ea 3d b7 d3 cc be 3a 8c 8a 3e 02 67 bd be
       0.11427607 -0.40005276 0.2706011 -0.3699265
0001a0 2a 64 4b 3d 19 c5 1c 3e 81 ce 38 be bf fb 37 3e
       0.04965607 0.15309562 -0.18047525 0.17967127
0001b0 89 60 85 be 15 bf a2 3c f5 68 21 3f 06 91 c3 be
       -0.26050213 0.019866506 0.63050777 -0.38196582
0001c0 45 80 04 bd f0 cf 06 3e fc 29 5e be ab 18 15 3e
       -0.03234889 0.1316526 -0.21695703 0.14560191
0001d0 67 0a 78 be 66 66 9f 3d 45 92 0f 3f 0d 65 3b be
       -0.24222718 0.07783203 0.56082565 -0.18300267
0001e0 d5 87 ff 3e be da 3b 3d a0 ca 89 bc 4c 2e 00 3e
       0.4990832 0.045862906 -0.016820252 0.12517661
0001f0 28 3a 99 bd 33 00 ca 3d 86 16 34 be 80 90 28 bc
       -0.074817955 0.09863319 -0.17586717 -0.010288358
000200 fd 22 01 3f 10 a5 dc 3e d7 e4 f2 3e 75 78 03 3e
       0.5044401 0.43094683 0.47440216 0.1283892
000210 54 e8 00 3f cf ed a4 3d 90 20 2b 3f 7d fd eb 3d
       0.50354505 0.08053171 0.6684656 0.115229584
000220 63 cf 4c bd 0a d3 b6 bc b1 90 ba bc 88 4c ce 3c
       -0.050002467 -0.022317428 -0.022774072 0.025182977
000230 93 27 1f bc 9d 0b f5 bc d5 82 fe bc 5c 99 ab bd
       -0.009714025 -0.029912764 -0.031068245 -0.0837886
000240 97 c5 16 3c 45 94 25 bd 9a 15 1c bd 17 32 5c 3c
       0.0092023825 -0.040424604 -0.03810654 0.013439677
000250 3d d6 82 3c e5 c1 61 bc f6 41 40 be 5c 37 e5 3c
       0.015971297 -0.013779138 -0.18775162 0.027980499
000260 a3 03 11 3e 16 d6 b7 bc 7d d0 1f be 5c f4 50 3c
       0.14161544 -0.022440951 -0.15606876 0.012753572
000270 83 3c cb be 6c fe 7e bc 2a 06 0c bf e2 44 15 be
       -0.39694604 -0.015563589 -0.54696906 -0.14577058
000280 fc ab 89 3e 0d 00 8c 3c 6b 8b fe bd 5d 8d cf 3c
       0.26889026 0.017089868 -0.124289356 0.025335962
000290 7b c9 13 bf ff c2 6c bb 85 00 37 bf 90 f6 d2 bd
       -0.5772931 -0.003612697 -0.7148517 -0.10300934
0002a0 34 19 fb 3d c8 76 db 3d 8a 7d 6e be 6a a7 ff 3e
       0.122606665 0.10716015 -0.23290077 0.49932414
0002b0 f7 5e e3 3c 2a 7f 32 3e 6e 06 68 bb 30 37 13 3d
       0.027755244 0.17431322 -0.0035404223 0.035941303
0002c0 fc f8 61 be 5f 63 67 3b c7 97 f5 bc 38 24 87 3d
       -0.22067636 0.0035307033 -0.0299796 0.06598705
0002d0 5e 4c 9f 3c 8e c4 8c 3d 27 9b 97 3d 80 85 0d 3e
       0.019445594 0.06873427 0.0740264 0.13820457
0002e0 94 20 c0 3d fa 14 f9 3d 66 3d 36 bd c4 db 10 bc
       0.09381214 0.12162204 -0.044492148 -0.008841459
0002f0 9e 67 52 3c 36 eb c3 bd 91 61 f8 bd f6 df ba be
       0.012842087 -0.09566347 -0.12127984 -0.36498994
000300 be b5 b9 be 7b 7b 8f bf 6c b6 8b bd 3e f9 07 bd
       -0.3627147 -1.1209558 -0.068219036 -0.03319668
000310 86 76 6c 3d 19 12 91 bd ca 5b f2 bc 8b 65 65 3d
       0.05773022 -0.0708353 -0.029584784 0.056005042
000320 69 a3 96 be 69 7a 7a 3e a9 71 c5 bc 6b f2 c4 bd
       -0.29421547 0.24460758 -0.024102049 -0.0961655
000330 21 a4 9a 3d be 84 82 bd ed 6e 2b 3d 52 b4 80 3d
       0.07550836 -0.06372975 0.041853834 0.06284393
000340 aa b7 0c be c6 6b a3 3e 80 0f 4e bb 68 4e 2e bd
       -0.13741937 0.31918162 -0.0031442344 -0.042555243
000350 37 e8 04 be fc 1c cf 3d d1 d8 09 be cf 03 4d be
       -0.12979208 0.1011295 -0.13461615 -0.20020984
000360 77 c3 de bd 08 6a 04 bf 1e 8a c5 be d4 d0 e1 be
       -0.10877126 -0.5172429 -0.38581938 -0.44104636
000370 ef 14 c8 bd 02 87 2b 3e f9 df 18 bd 21 35 e3 bd
       -0.09769618 0.1675072 -0.037322972 -0.11094118
000380 6c c6 2b bd 00 2d 37 be 43 be 90 3c 66 6b 48 bd
       -0.041937277 -0.1788826 0.017668849 -0.048930548
000390 78 40 d9 3b 06 8b 02 3e 95 d9 7a 3d 23 30 4c be
       0.0066299997 0.12748346 0.06124266 -0.19940238
0003a0 a9 fd 86 bc 20 3f ba 3e 96 9d f6 3d 5c 62 2b 3f
       -0.016478376 0.36376286 0.12041776 0.6694696
0003b0 62 5c a9 be fd c4 49 3e 90 e7 e4 bd 32 2b b2 be
       -0.33078295 0.19704051 -0.111769795 -0.3479858
0003c0 f4 0e 2c 3e c4 52 29 3f bf c0 3a 3f 14 4b 9b 3f
       0.16802579 0.66141915 0.7295036 1.2132287
0003d0 1e 16 53 be 9e 25 9c 3d 08 ae 4e bd fe ca 5c be
       -0.20613906 0.076243624 -0.050458938 -0.2156181
0003e0 a6 76 5c 3e ec 20 b3 3e 4a c2 00 3f 49 c1 89 3f
       0.21529636 0.34986055 0.5029646 1.0762111
0003f0 c2 09 09 be e8 e9 94 be fe 41 eb bb 7f 30 73 3e
       -0.13382629 -0.29084706 -0.0071794977 0.23748969

sequential/dense_1/MatMul f4 [10, 20]
000000 20 ea 28 3e 35 eb 23 3e 2d 03 02 3f 61 9d 4e be
       0.16495562 0.16007693 0.50786096 -0.20177223
000010 cd 36 2b be 2c f8 22 3d 9a 6d 0a be d1 f8 3e 3f
       -0.16720124 0.039787456 -0.13518372 0.74598414
000020 7f 9b 09 3f 3c 98 c6 3e 88 e7 d9 be 7c 10 90 3f
       0.53752893 0.3878802 -0.42559457 1.1255031
000030 98 22 09 be 90 22 91 bf c3 b8 c3 bd eb 47 3b be
       -0.13392103 -1.1338673 -0.09556725 -0.18289153
000040 66 59 c9 be f9 46 67 3f 78 ba 8f 3e cf 97 4f 3e
       -0.39326018 0.9034267 0.28071952 0.20272754
000050 d7 55 86 3e 76 67 88 be df 58 77 bd 53 bd 72 3f
       0.26237366 -0.26641434 -0.06038749 0.94820136
000060 b7 9d 76 3d 12 11 1d 3f 3d 3e 16 3f d4 e2 45 be
       0.060209002 0.6135417 0.5868872 -0.1932481
000070 ef 3b 03 3f 57 33 51 3d 8d c1 78 3f d7 9b 90 3e
       0.51263326 0.051074352 0.97170335 0.28243896
000080 72 0d d9 3c fd 97 25 3e 26 d5 c1 3e e0 43 2f 3f
       0.026495669 0.1617126 0.37857932 0.68462944
000090 12 c5 0e 3f 06 43 02 3d b9 fc c8 bc ff ac df bd
       0.55769455 0.0318022 -0.02453457 -0.10921668
0000a0 7a 5b 8d bf 37 7c 85 3f 10 8e c3 be 78 af 1f be
       -1.1043541 1.0428532 -0.38194323 -0.1559428
0000b0 c6 f6 81 3d 86 65 30 be d8 d2 e0 3e a1 a7 be 3d
       0.063458964 -0.17226228 0.4391086 0.093093164
0000c0 7c f8 29 3f 81 b0 86 be f0 5d db bd 86 67 1a be
       0.6639478 -0.26306537 -0.107112765 -0.15078554
0000d0 78 df 85 be 3e e2 84 be ff 50 75 3e 0d ac ce 3e
       -0.26147056 -0.2595386 0.23956679 0.4036564
0000e0 96 c3 31 bd e8 58 5c be 89 45 15 3e 04 c2 49 3f
       -0.043399416 -0.2151829 0.14577307 0.7881167
0000f0 b4 cf 39 be 11 4d 84 3e cf 5e ac 3d d0 27 08 bf
       -0.18145639 0.25840047 0.08416521 -0.5318575
000100 98 e8 41 bf 94 da 17 be da ac e2 3e 73 80 53 3d
       -0.75745535 -0.14829475 0.442725 0.05163617
000110 66 97 ea bd ac 8e 2d be 11 69 49 be 9b fe 3b 3d
       -0.11454658 -0.16948956 -0.19668986 0.045897108
000120 b9 e0 ed 3e b2 51 be be 09 67 c9 3e 24 14 0f 3e
       0.46460512 -0.37171704 0.39336422 0.13972527
000130 ce 98 19 bf 6c 40 ed bd a1 ee d1 3d a3 40 2b be
       -0.59998786 -0.11584553 0.10250593 -0.16723876
000140 76 8a 53 3e f6 9e e2 3e 25 7f 50 3e 2c c2 16 3e
       0.20658287 0.44261903 0.20361002 0.14722508
000150 a3 03 3f be a9 58 c7 bd 83 c2 8c bd 19 c6 82 3e
       -0.18653731 -0.097337075 -0.06873038 0.25541762
000160 47 8b fa 3e c5 d6 15 3e c8 32 44 bd 47 44 43 3f
       0.48934385 0.1463271 -0.04789999 0.7627606
000170 6e 33 48 be eb d3 71 bf 2a 9b 96 bd 12 6a 52 be
       -0.19550869 -0.94463986 -0.07353814 -0.20548275
000180 0e d8 c2 be 44 67 45 3f b8 70 a6 3e 97 5a 14 3f
       -0.38055462 0.77110696 0.32507873 0.5795073
000190 07 31 87 3f ab 34 6c 3e 5d 02 00 3f ce be 5b 3f
       1.0561837 0.23066966 0.50003606 0.8583802
0001a0 de 95 c0 bd 8d 8f 08 3f c1 52 07 3e 1c 48 47 3f
       -0.09403585 0.5334404 0.13215162 0.77844405
0001b0 08 11 76 3e 57 6b 58 3e 75 ca 50 3f 7f 51 df 3e
       0.24029934 0.21134697 0.81558925 0.43616864
0001c0 b0 ca f7 bd 4d 37 dc be ae 76 ac 3d bc 74 8a 3d
       -0.120992064 -0.4301094 0.08421074 0.067605466
0001d0 b3 0a 7f bd ae 85 0c 3f 20 6d 9c 3e 56 ea f2 3e
       -0.062266063 0.5489148 0.30552006 0.4744441
0001e0 20 ba 09 be b0 18 59 be 80 b7 83 3e 11 9a c8 be
       -0.13449907 -0.21200824 0.25725937 -0.39180043
0001f0 e1 cf 60 3d eb bb 00 3d e8 c3 89 bf ad 04 6f be
       0.05488575 0.031429213 -1.0762911 -0.23341627
000200 2e e2 0d bd ad e7 00 be f8 0e c1 be e1 28 da 3d
       -0.03463953 -0.12588377 -0.37706733 0.10652328
000210 64 0f 28 3f db 61 7e 3d b8 44 85 bf d3 3e 81 bf
       0.65648484 0.06210504 -1.0411596 -1.0097297
000220 45 b4 ee be 45 b9 66 3e a0 c5 dc 3e 95 26 12 bd
       -0.4662191 0.22531612 0.43119526 -0.035681326
000230 54 d1 aa 3e 98 72 7f 3e e5 fd ad 3d 95 24 61 3f
       0.3336283 0.24946058 0.08495692 0.87946445
000240 95 b8 aa 3f 2d 7a 33 be f7 53 6f 3f 4e 8e 00 3f
       1.333758 -0.17527075 0.93487495 0.5021714
000250 32 f0 de 3d 96 ba 2d 3f e1 3c 25 3f 41 8a 49 3d
       0.10885657 0.6786283 0.6454602 0.049204115
000260 af 0d d4 be 59 aa 75 3f c8 97 66 3f c4 ae fe 3e
       -0.4141669 0.95963055 0.9007535 0.4974271
000270 40 fb de 3e 8b ae 98 ba 8b 90 2d 3e 55 86 8e 3e
       0.43551064 -0.0011648698 0.1694967 0.27836862
000280 15 88 19 3f 18 12 b7 be f1 18 2c 3e 05 4c 13 3f
       0.5997327 -0.35755992 0.1680639 0.5753787
000290 71 85 e8 bd 1b 0a 34 3f 43 b9 c7 bc 2d 8d a1 3e
       -0.11353577 0.7032792 -0.024380332 0.3155302
0002a0 8c 0c 2f 3f 97 33 e9 3d 64 43 56 3f 2a 74 9c bd
       0.6837852 0.11386793 0.8369658 -0.07639344
0002b0 d3 c4 97 3f 8f 27 1b bd 36 c7 d6 bc 36 39 13 bd
       1.1856941 -0.037879523 -0.026218038 -0.035943232
0002c0 aa 2f a4 3e 9f 5e 89 3e 6c 65 5f 3f 0e 20 a4 be
       0.32067615 0.26830003 0.8726413 -0.32055706
0002d0 18 b6 40 3d 32 ca 41 bf c8 6e 1c 3f 65 c8 37 bd
       0.047048658 -0.7569915 0.6110654 -0.044868845
0002e0 58 ca a0 3e e8 a6 a6 bf 7c 46 bf 3d 28 e0 e0 3d
       0.31404376 -1.3019686 0.09339616 0.109802544
0002f0 1b 09 b0 bd 79 da 47 3f 78 0f c4 3e 9c f4 c0 3e
       -0.08595487 0.7806774 0.38293052 0.37686622
000300 4a 92 8e 3f 13 2f 82 3f 5b 29 f3 3d 48 1a 90 bd
       1.1138394 1.0170616 0.11873122 -0.07036263
000310 29 ad ca be 80 3f 42 be 6a 33 89 3f 23 44 91 be
       -0.39585236 -0.18969536 1.0718815 -0.28372297

sequential/dense_2/MatMul f4 [5, 10]
000000 bd a9 dc be 47 2b 96 3f 3d 1c 31 bf ac d8 a3 3e
       -0.4309825 1.1731957 -0.69183713 0.32001245
000010 f6 ca 2d bf 02 80 55 3d ed 4a b3 be 75 dc 1c bd
       -0.6788782 0.05212403 -0.350181 -0.03829618
000020 a8 08 81 3f 2c 02 c3 3e e5 a6 58 3f 1a e1 e3 bd
       1.0080767 0.38087595 0.8462966 -0.11126919
000030 7a 79 eb 3e 21 67 08 bf 45 f6 64 3f b4 61 6e 3f
       0.45991117 -0.5328236 0.8943828 0.93117833
000040 39 18 7a bf 1c ed ec bc 43 01 d9 3d fb 0f c2 be
       -0.9769321 -0.028921656 0.10595944 -0.37902817
000050 70 0d 4f 3f cf fc 90 be 02 22 14 bf c6 7f 39 3f
       0.8087988 -0.28317878 -0.5786439 0.7246059
000060 20 d4 25 3f 3d d5 2e bd 47 3c 64 3f 52 03 ed bf
       0.647768 -0.04268383 0.89154476 -1.8516638
000070 a5 a9 13 3f 3c 23 47 be 5c 09 94 bf f0 18 85 bd
       0.5768073 -0.19447035 -1.1565356 -0.06498897
000080 01 56 17 3f 83 bc 22 3f f0 4d 69 be 4e 89 9b bf
       0.59115607 0.63568896 -0.22783637 -1.2151277
000090 c1 d6 1a 3e bb 07 01 3f df 4f 02 c0 20 a5 de bf
       0.15120985 0.5040242 -2.036125 -1.7394142
0000a0 de 31 27 3e 2b a0 96 bf 15 d7 d6 bf 37 f0 dd be
       0.16327617 -1.1767629 -1.6784388 -0.43347332
0000b0 65 ac 17 be 0d b7 a0 bf 5b d7 03 3f 6d 6d c6 3d
       -0.14811857 -1.2555863 0.5150048 0.0968884
0000c0 05 d5 66 3d 1c cc 8b 3f
       0.056355495 1.0921664
