model/point_history_classifier/point_history_classifier.tflite (tflite, 6476 bytes, 6 tensors)

sequential/dense/BiasAdd/ReadVariableOp f4 [24]
000000 8b 03 5c bd 90 5d 8f 3e 21 44 25 bd a7 e0 16 be
       -0.053714316 0.2800107 -0.040348176 -0.14734136
000010 b3 d3 ea bd 6e e9 eb bd 34 27 d2 bc 6e bb 29 bd
       -0.1146616 -0.115191326 -0.02565346 -0.041438513
000020 55 80 bb bd 0f fb 04 be 4a b1 c5 bd e4 0a 33 bd
       -0.09155337 -0.12986396 -0.09652956 -0.043711558
000030 66 77 87 bd 63 c5 55 3e ae ba 6c bd 98 43 2b 3e
       -0.0661457 0.20876078 -0.05779522 0.16725004
000040 b4 40 1e bd 1c db b8 bd fd ae 7f bd e8 f8 a3 bc
       -0.038635924 -0.09026167 -0.06242274 -0.020016149
000050 98 bd 93 3e 82 fb eb bc 7d 3f d4 bd 00 13 d2 bd
       0.28855586 -0.028806452 -0.10363672 -0.1025753

sequential/dense_2/BiasAdd/ReadVariableOp f4 [5]
000000 ae e9 f1 3e 99 1f 81 3e 81 62 8a be 81 ba a2 bd
       0.47248596 0.2521942 -0.27028278 -0.07945729
000010 24 cc b2 be
       -0.34921372

sequential/dense_1/BiasAdd/ReadVariableOp f4 [10]
000000 ef 5f 27 bf c3 33 0b 3f ee a2 52 3c aa 50 a7 3b
       -0.6538076 0.5437586 0.012856228 0.0051060515
000010 d6 b1 a4 3d 58 7d 39 3f cf 64 27 3f 58 d6 90 3c
       0.08041732 0.72456884 0.65388197 0.017680332
000020 7d f6 b1 3e 80 52 52 3f
       0.34758368 0.82157135

sequential/dense/MatMul f4 [24, 32]
000000 70 18 a6 bc 6c a3 2c be 90 c6 3f 3f 3b 7f 31 bf
       -0.020275325 -0.16859215 0.7491236 -0.69334763
000010 87 80 93 3f 16 3b 90 ba 00 96 b5 3f 9a 66 92 be
       1.1523598 -0.0011003937 1.4186401 -0.28593904
000020 c7 62 7e 3f c5 12 b4 bd df 43 21 3f 52 ed be 3d
       0.9936947 -0.087926425 0.6299419 0.09322609
000030 bc 66 27 3f af a6 54 bd ab 83 ba 3e 1b ac e9 3e
       0.65391135 -0.051916774 0.3642858 0.4563912
000040 e4 88 8e 3d e7 7e aa 3e b7 c8 bd be 6d d3 10 3f
       0.069597036 0.33299944 -0.37067196 0.5657261
000050 7d 39 cd be e8 cb 18 3f a5 53 ca be 84 b1 06 3f
       -0.40082923 0.59686136 -0.3951694 0.5261462
000060 2d 55 ca be c9 20 7d 3e 56 c1 15 bf 68 ba 18 3f
       -0.3951811 0.24719538 -0.5849813 0.59659433
000070 66 50 58 bf e4 29 44 3f 75 28 62 bf 1b 93 29 3f
       -0.8449768 0.7662642 -0.8834298 0.6624009
000080 90 11 28 3d 64 7a c4 bd 47 17 89 3e ff 75 98 be
       0.041032374 -0.09593657 0.26775572 -0.29777524
000090 55 6d 98 3e 3a 29 82 3b 0d d4 14 3f e6 05 2c be
       0.29770914 0.0039721997 0.58136064 -0.16799125
0000a0 81 9f 16 3f 5f d8 a7 bc e4 01 27 3e 46 e4 3b 3e
       0.58837134 -0.020488916 0.16309315 0.18348798
0000b0 c6 17 09 be db 7a 13 bd 3a ee 56 be aa 1e 78 3e
       -0.13387975 -0.036005836 -0.20989314 0.24230447
0000c0 7e 89 40 bf 0f ef 67 3e d8 a0 8e bd d3 80 d2 3e
       -0.75209796 0.22649787 -0.06964272 0.4111391
0000d0 b6 26 a9 be 6d fd 45 bd 54 2a 22 3e 22 aa 90 3e
       -0.33037347 -0.04833739 0.1583646 0.282548
0000e0 78 cf 7f 3e ec 0b 86 3e ef d0 58 3f 97 f8 d5 3d
       0.24981487 0.2618097 0.8469381 0.104478054
0000f0 12 ca aa 3f df ea ec bd 89 05 f1 3f 30 64 8c 3e
       1.3342917 -0.115682356 1.8829814 0.27420187
000100 6c 92 59 3e 24 5f 4f 3e e1 47 4a bf c1 82 5a 3f
       0.21247262 0.20251137 -0.7901593 0.85355765
000110 8e 8f 1f bf f9 f4 2a 3f 55 f6 99 be 44 5b 8f 3f
       -0.6232842 0.6678005 -0.3007075 1.1199727
000120 5d d2 7e bd e6 50 e8 3e 46 a5 09 be d8 93 b1 3e
       -0.062212337 0.4537422 -0.13441953 0.34683108
000130 b8 a1 3f be d1 2b 7f 3e 8d 51 a4 bd ec 11 58 3d
       -0.18714035 0.24919058 -0.08023367 0.052751467
000140 59 0d 8b be a4 30 21 3c c2 89 fa be 08 d0 83 be
       -0.2715862 0.009838257 -0.48933226 -0.25744653
000150 c8 c3 e0 be c2 2a 5a be cb 5b c5 be 0b 48 43 be
       -0.4389937 -0.21305373 -0.38546595 -0.19070451
000160 e5 5a 01 bf b4 3d 00 bf 78 4b 2c bf 39 9d bd be
       -0.5052932 -0.5009415 -0.67302656 -0.37034014
000170 9f 07 30 bf 51 2b 32 bf 40 f1 3f bf 05 b1 7b bf
       -0.6876163 -0.69597346 -0.74977493 -0.98316985
000180 04 fa 8a bd 78 26 11 3d 16 2b 7b be 14 91 b9 bf
       -0.06785968 0.035437077 -0.24528155 -1.4497399
000190 56 35 0e bf fd e1 93 bf 50 f7 51 bf a1 4e 7e bf
       -0.55550134 -1.1553341 -0.82017994 -0.9933873
0001a0 0e 1f 55 bf 60 bb 37 bf 83 93 90 bf cb 35 d7 be
       -0.8325051 -0.71770287 -1.1295017 -0.42033228
0001b0 f2 fe 8a bf c3 bf 7e be b0 3e 20 bf 47 ed 08 3e
       -1.0859053 -0.24877839 -0.62595654 0.13371764
0001c0 44 99 26 bf af 29 0b 3e f7 8d e9 be 3f 00 01 3e
       -0.65077615 0.1359012 -0.45616123 0.1259775
0001d0 57 ac 40 be b4 18 ef 3e f3 4f 53 be f3 6e e3 3e
       -0.18815742 0.46698534 -0.20635967 0.44420585
0001e0 2d c1 03 be db bc ec 3e cc 76 2f 3d 82 82 94 3e
       -0.1286666 0.46237835 0.042837903 0.2900582
0001f0 17 dd 3a 3e 85 1d 1f 3f 63 31 16 be 56 3d 21 3f
       0.18248402 0.6215442 -0.14667277 0.62984216
000200 5c e4 7c 3e bc 9f 70 3e ad 34 72 bf 90 24 4e bf
       0.24696487 0.23498434 -0.94611627 -0.8052454
000210 b3 63 fc be a7 43 3d bf fa 8f b8 be 48 62 39 bf
       -0.49294814 -0.73931354 -0.36047345 -0.7241559
000220 ab 3f a0 be e8 78 15 bf da 40 a1 bd ff 5c 9c be
       -0.31298575 -0.58387613 -0.078736976 -0.305397
000230 84 6c 66 3e de 74 d9 be a5 50 b9 3e e9 d2 e2 be
       0.22502333 -0.42471975 0.3619434 -0.44301537
000240 56 13 11 3f c3 91 d2 be 54 c2 59 3f a4 4b 38 3c
       0.5667013 -0.41126832 0.85062146 0.011248503
000250 91 e3 47 3f b7 f0 9f 3d f4 2e 20 3f 85 37 2d be
       0.78081614 0.078095846 0.62571645 -0.1691571
000260 af 56 18 3f ec 67 c6 3e e4 db cf 3e 9f ee b3 3e
       0.5950727 0.3875116 0.4059745 0.3514299
000270 a1 cd 9b bd 88 ac 37 3f 55 aa 8a be cf c5 1c 3f
       -0.0760758 0.71747637 -0.27083078 0.6123933
000280 f8 11 fe bd 36 c3 c7 bd 7c 00 3c 3f 59 07 8e 3f
       -0.12405771 -0.097540304 0.7343824 1.1095992
000290 48 42 f8 3e e7 34 83 3f 7d da 25 3e 79 46 40 3f
       0.4848807 1.025052 0.16196628 0.7510753
0002a0 76 e3 a4 bc b6 6f 27 3f 52 48 a7 be af df e1 3e
       -0.020127993 0.6540483 -0.32672364 0.4411597
0002b0 c4 e6 97 be 9e f1 60 3e 76 aa 02 bf e1 90 10 3e
       -0.29668248 0.2196717 -0.5104135 0.14117767
0002c0 35 f8 30 bf 2d 2c 49 3e b7 c4 50 bf 88 7f 1e bd
       -0.69128734 0.19645758 -0.81550163 -0.038695842
0002d0 9a a5 30 bf 8c 36 25 be b9 ca 0e bf b4 1f e1 be
       -0.6900269 -0.16134089 -0.5577808 -0.439695
0002e0 b4 b1 e6 be c6 27 fc be 2e 90 81 3d 5d 46 2b bf
       -0.45057452 -0.49249095 0.06326328 -0.6690424
0002f0 67 c4 b6 3e 57 5b cb be 8d 56 f8 3e 62 32 5e be
       0.35696718 -0.39718124 0.48503533 -0.21698907
000300 42 ae 8a be 0c e1 73 3e 0e cd d4 be 62 12 5e bf
       -0.27086073 0.23816317 -0.41562694 -0.867468
000310 05 e1 a4 be 84 bb 6f bf 2b 5b db be 27 ea 3a bf
       -0.32202926 -0.936455 -0.42842993 -0.7301354
000320 78 d5 d7 3c 87 50 97 be b7 22 90 bd c9 10 eb be
       0.026346907 -0.29553625 -0.07037871 -0.45911244
000330 e6 e9 14 be 73 87 b1 be 4c 3e da 3d 30 08 c4 be
       -0.1454235 -0.34673652 0.106564134 -0.38287497
000340 22 a9 06 3f 7c 66 30 bd ba e8 02 3f 63 20 f4 be
       0.52601826 -0.043066487 0.5113636 -0.4768096
000350 34 56 17 3f 93 23 2f be f9 c5 19 3f 5c c8 89 3d
       0.5911591 -0.17103414 0.6006771 0.06727669
000360 6b ce f8 3e 71 44 a5 3d c3 cf 1a 3f b9 fb 89 bd
       0.48594984 0.08069695 0.6047327 -0.067374654
000370 ea c0 56 3f d8 9c c3 3e 5b 1c 78 3f 93 71 9f 3f
       0.83888113 0.382056 0.96918267 1.2456535
000380 06 48 a6 3e 6c ae e6 3d 3d 49 f2 3e 04 e3 eb bf
       0.32476825 0.11263737 0.473215 -1.8428655
000390 53 21 90 3e e8 7c 90 bf 80 12 31 3f 04 f6 91 bf
       0.28150424 -1.1288118 0.69168854 -1.1403203
0003a0 8d fc 43 3f 6d 35 2d bf 65 b0 1b 3f 8f a3 24 bf
       0.76557237 -0.67659646 0.6081603 -0.6431207
0003b0 ee 94 01 3f 98 75 b4 be df 05 45 3f 2d 12 26 3e
       0.50617874 -0.35245967 0.76962084 0.16217871
0003c0 86 84 30 3f d6 8b eb 3e f0 a3 41 3f d5 d4 1c 3f
       0.68952215 0.46005124 0.75640774 0.61262256
0003d0 3d 21 0d 3f cc 85 a6 3e 4e d7 0a 3f c2 22 a8 3e
       0.5512884 0.32523954 0.5423478 0.32839018
0003e0 0c e8 21 be e8 4e ce 3e 0f bb 05 be 6b 75 08 3f
       -0.15811175 0.40294576 -0.13059638 0.53304166
0003f0 99 86 57 bc 1f 1a d8 3e f0 c8 12 bf 7d 15 61 3f
       -0.013154649 0.4220743 -0.57337856 0.87923414

sequential/dense_1/MatMul f4 [10, 24]
000000 ac 4a 8c 3e 84 9e 07 3f f5 31 fa be 93 a7 41 bc
       0.2740072 0.5297625 -0.4886624 -0.011819738
000010 be a2 2e 3f f4 4e 6d bc ca f3 0d 3f 6b c7 2b 3e
       0.68217075 -0.014484156 0.5545012 0.1677529
000020 24 3b 4b bf 76 01 b3 3e 09 70 cc 3e c8 55 26 c0
       -0.79387116 0.34962052 0.39929226 -2.5989857
000030 ab de 05 be 14 bb da 3e 89 ae c9 bf 76 b8 f4 3e
       -0.13073222 0.42720854 -1.5756389 0.47796983
000040 fe ee 28 bf d6 cb 19 3f 2f 64 ab 3e 78 80 81 3e
       -0.65989673 0.60076654 0.33474872 0.25293326
000050 56 f9 c5 3e f6 3e c7 be f4 ed 6b 3e f3 5b 8e 3e
       0.3866679 -0.38915223 0.2303999 0.27804527
000060 f9 71 f6 3e a2 4a 26 3f c1 f3 ff 3e fb 6d 99 be
       0.4813383 0.6495763 0.49990657 -0.2996672
000070 08 26 6c 3f 45 c3 52 3f 77 f9 66 3f 8a 41 25 3f
       0.9224553 0.8232921 0.90224403 0.6455313
000080 23 fc 00 bf b0 70 0e bf ef 5f 1e bf c4 4e 04 be
       -0.5038473 -0.556407 -0.61865133 -0.12920672
000090 83 6b 89 3e 31 67 45 3f a1 40 0e bf 89 ad 52 3d
       0.26839837 0.7711058 -0.55567366 0.051435027
0000a0 17 89 a3 3e 79 6f 55 bf 71 0f 3d 3f 84 11 db 3e
       0.3194053 -0.8337322 0.73851687 0.427868
0000b0 5f 97 2d 3f 3f 19 a4 3e 6e 2c 5a 3e 30 60 ac bf
       0.678091 0.3205051 0.21306011 -1.3466854
0000c0 a4 4a 99 3f a6 15 57 3d 27 29 b8 3f 80 19 48 3f
       1.1975904 0.05251088 1.4387559 0.7816391
0000d0 bd 05 a0 3f 45 7e 8d 3f 68 a3 e5 3f 98 e9 bf 3f
       1.2501751 1.1054159 1.7940493 1.4993162
0000e0 2e cd d6 3f f9 c9 97 3f 68 3f ef 3f 53 4b c7 3f
       1.6781366 1.1858512 1.8691225 1.5569862
0000f0 e2 5c 84 3f 99 db 84 3e 86 0e d2 3f b0 b0 79 3e
       1.0340846 0.2594879 1.6410682 0.24383807
000100 f1 2e a0 3f fb c8 06 40 65 36 e1 3f 31 f6 b5 3f
       1.2514325 2.1060169 1.7594725 1.4215757
000110 29 f6 cb 3e a3 9b 8d 3f 46 6d a4 3f fe f2 bd 3f
       0.39836243 1.1063122 1.2845848 1.483978
000120 9a ed b9 3e ab 80 a7 3d 60 86 01 3f ea f8 c2 3f
       0.36314088 0.08178838 0.50595665 1.5232213
000130 9e ca 90 bd 1a 5b 82 3e 19 f8 cb 3e a9 4c 30 3f
       -0.07069896 0.2546013 0.3983772 0.68866974
000140 8d 92 dc 3f 9c 47 a9 3f de b2 be 3f 0b 21 67 3f
       1.7232224 1.3224978 1.4898336 0.90284795
000150 59 85 03 3f 32 82 27 3d 29 92 a1 3f 31 75 80 3e
       0.5137535 0.04089565 1.262273 0.2508941
000160 9c 2c 37 3f 61 9e ac 3f 5e 6d 34 3e 2f 04 32 3f
       0.71552444 1.3485833 0.17619845 0.69537634
000170 53 53 0e 3e 69 66 48 3f 51 3c b7 bd 34 4f cf 3f
       0.13898973 0.78281265 -0.08947051 1.6196046
000180 8d 34 22 3f 8a c3 e6 3d 86 1d 21 3f 92 47 65 3f
       0.63361436 0.11267765 0.62935674 0.8956233
000190 c3 f5 cd 3e 15 76 55 3e aa 2e ed 3e 85 5a aa 3e
       0.40226564 0.20845826 0.46324664 0.33272186
0001a0 82 91 6a 3f 0a d9 00 3f 06 34 9a 3e 9b bd 08 3f
       0.9162828 0.50331175 0.30117816 0.53414315
0001b0 9b 04 80 3f ba 72 0c 3e b0 d1 49 3f 12 bd 8e bc
       1.0001405 0.1371564 0.7883558 -0.01742414
0001c0 c0 2a 5c 3f cb bd 03 3f c6 eb f3 3e ba 62 4d 3f
       0.8600273 0.51461476 0.47640818 0.8022877
0001d0 b5 a8 37 3b 80 2b ab 3e 01 e0 48 3f 25 e7 35 3f
       0.0028024141 0.33431625 0.784668 0.71055824
0001e0 ff 89 e9 bf 21 8f 97 3e 2e c8 0b bf 8d b7 f7 bf
       -1.8245238 0.29601386 -0.54602325 -1.935289
0001f0 b8 40 02 bf bc 57 b6 bf d7 db 0a bf e7 0c e6 be
       -0.5088 -1.4245524 -0.542417 -0.4493172
000200 42 8e 81 bf b8 4e f2 be 25 7e 88 be a8 69 a2 bf
       -1.0121539 -0.47325683 -0.2665874 -1.2688494
000210 c1 2f 12 c0 d6 7d e2 3e b3 59 9b bf 0d 41 f8 3e
       -2.2841647 0.4423663 -1.2136749 0.4848713
000220 27 47 46 bf cb 2e 1a bf 5e 8d e4 be f3 e5 22 bf
       -0.7745232 -0.6022765 -0.44639105 -0.63632125
000230 d6 68 1e 3f 20 1b 90 bf a2 d3 81 bf 68 f5 b6 bf
       0.61878717 -1.1258278 -1.014271 -1.4293642
000240 6d fa d9 be 16 d3 2c 3f c1 83 4a bf 6e 9d 87 3e
       -0.42573872 0.6750959 -0.7910729 0.26487297
000250 f6 32 a0 bf 36 f0 c8 bf 3f f6 08 bf a2 df 46 bf
       -1.2515552 -1.5698307 -0.5350074 -0.77684987
000260 ed 47 fe 3e 0d dc 9c 3e 1d df 08 be 0f f8 bf 3e
       0.4966425 0.30636635 -0.13366361 0.3749394
000270 13 83 86 be 89 53 0a 3f 8b a3 e2 bc 01 1f 50 3f
       -0.26271877 0.54033715 -0.027665874 0.8129731
000280 6f c7 6d bf be 0d 9d 3d 56 94 88 bf 9e 3b 08 bf
       -0.92882437 0.07668637 -1.0670269 -0.5321597
000290 bb fd 39 3f 50 49 23 bf 89 d9 f6 bf 40 f4 fd 3e
       0.72652787 -0.6378374 -1.9285136 0.4960041
0002a0 8a 69 1b 3f ab c0 2a 3e 52 e0 53 3f 1d 27 d6 3f
       0.60707915 0.1667506 0.8276416 1.6730686
0002b0 63 bf 09 3f 5a fe db 3a 23 c5 00 3f 77 4e 25 3f
       0.5380766 0.0016784177 0.50300807 0.6457285
0002c0 a1 21 b0 3f b6 19 d9 3f a5 26 a7 3f 56 98 8e 3f
       1.3760263 1.6960971 1.3058668 1.1140239
0002d0 81 c1 26 3f 4f b6 26 3e 17 8f 51 3f 98 71 c9 3d
       0.65139014 0.16280483 0.8185896 0.098361194
0002e0 b6 33 92 3e 6f ce b2 3f 3b c6 29 3f 5a 80 50 3f
       0.28555077 1.3969249 0.663181 0.8144585
0002f0 17 f1 a3 3d 91 d6 23 3f 67 38 fb 3d fb bd de 3f
       0.080049686 0.6399928 0.12266617 1.7401727
000300 e9 b8 94 3e 87 85 ad 3e 6f 3b 51 3e 82 e7 2e bf
       0.29047325 0.33890936 0.20432828 -0.68322
000310 16 43 40 3f a8 dc 24 3d 7e e3 7d 3e 54 7b 22 3f
       0.75102365 0.040249497 0.24793813 0.63469434
000320 29 f7 58 bf a1 08 19 bf cc 52 1c bf 64 37 cf be
       -0.84752136 -0.5977879 -0.6106384 -0.40471947
000330 f8 7b 8c 3e f0 13 33 3e 34 0c e5 be ef d7 23 3f
       0.2743833 0.17488074 -0.44735873 0.64001364
000340 28 cd 28 3f ee 5e a9 bd ed 99 32 3f 61 ea ca 3e
       0.65938044 -0.082700595 0.6976612 0.39631942
000350 b7 e9 1d 3e 34 14 26 3f ef ea 2f 3f 2c e3 52 bf
       0.15421186 0.6487458 0.68717855 -0.82377887
000360 1a 31 b6 be 8d 89 90 3e ca 1c 29 bf d6 8a 34 bd
       -0.35584337 0.28229943 -0.66059554 -0.044077717
000370 91 a2 1e bf 47 7f a7 bf 57 52 40 be 0e de 7f be
       -0.61966807 -1.3085717 -0.1878141 -0.24987051
000380 92 3a d1 3e 3d 27 46 3f 7b cb be 3e b2 df ad bc
       0.40864998 0.7740362 0.37264618 -0.02122483
000390 3e f4 67 bd 21 aa f4 3e 92 ab 80 bd f7 4e 3a 3c
       -0.056629412 0.47786048 -0.062827244 0.011371366
0003a0 16 2d 31 bf 31 6d 2d 3f 88 a9 33 bf 6c f9 ba be
       -0.6920942 0.6774474 -0.7018056 -0.3651842
0003b0 dc 55 58 3e 41 5c d3 be f9 02 af bf 98 34 27 3f
       0.21126503 -0.41281322 -1.3672782 0.65314627

sequential/dense_2/MatMul f4 [5, 10]
000000 b7 20 cf bf fe 28 6f be 9b 86 49 c0 ff 87 37 c0
       -1.6181859 -0.23355481 -3.1488407 -2.8676755
000010 6a 02 3c c0 52 8b f5 3f 01 be b1 3f 23 4a 33 c0
       -2.9376473 1.9183142 1.388611 -2.8014
000020 70 44 79 bf b6 8c 86 3f 89 ab 33 bf 7c ef 86 3f
       -0.9737005 1.0511692 -0.70183617 1.0541835
000030 ff 8a 85 3f 83 c9 bf be 12 0e 59 3d 19 fc 64 bf
       1.0433043 -0.3745843 0.052991934 -0.8944717
000040 14 1c 00 bf 19 d9 0e be 5a b9 8c 3f b0 6a ce bf
       -0.50042844 -0.13950004 1.0994065 -1.6126308
000050 0e e2 37 bf 0a 7f dc be bc 00 3a 3f f4 8e 57 3f
       -0.7182931 -0.43065673 0.7265737 0.84202504
000060 d3 bf 04 3e c9 66 95 bf 87 77 72 3f bc 54 53 3f
       0.129638 -1.1671993 0.94713634 0.8255117
000070 63 57 87 bf bb cd 22 3f dc b3 af 3f 0d 30 ea bd
       -1.0573543 0.6359517 1.3726764 -0.11434946
000080 de a2 26 3f 66 9c 2c 3f 3f 2b 26 3f 75 6e d7 3d
       0.65092266 0.67426145 0.6490974 0.10519115
000090 8d 61 f2 be 8a 55 60 3f e5 3a b2 be 00 d4 b7 be
       -0.4734005 0.8763052 -0.34810558 -0.3590393
0000a0 a0 da 6e 3d bc fe ae bf b5 75 a8 bf c8 0a 11 bf
       0.058313966 -1.3671489 -1.3160921 -0.56657076
0000b0 32 66 ff be ce 00 99 bf 45 75 8e bf 01 70 33 be
       -0.49882656 -1.195337 -1.1129538 -0.17523195
0000c0 cd a7 8e bf fb 31 ef bf
       -1.1144959 -1.8687128
